…
                           sample_every: 100                                    
                       checkpoint_every: 1000                                   
                                    gpu: 0                                      
================================================================================
Loaded 393345 samples from ../labels
Models moved to GPU.
Loading Style Identifier from checkpoints_cyclegan/style_identifier_iter100000.pkl
No checkpoint found, initializing new models.
                 G                
---------------------------------------
Generator(
  (conv1): Sequential(
    (0): Conv2d(3, 32, kernel_size=(4, 4), stride=(2, 2), padding=(1, 1), bias=False)
    (1): InstanceNorm2d(32, eps=1e-05, momentum=0.1, affine=False, track_running_stats=False)
    (2): ReLU()
  )
  (conv2): Sequential(
    (0): Conv2d(32, 64, kernel_size=(4, 4), stride=(2, 2), padding=(1, 1), bias=False)
    (1): InstanceNorm2d(64, eps=1e-05, momentum=0.1, affine=False, track_running_stats=False)
    (2): ReLU()
  )
  (conv3): Sequential(
    (0): Conv2d(64, 128, kernel_size=(4, 4), stride=(2, 2), padding=(1, 1), bias=False)
    (1): InstanceNorm2d(128, eps=1e-05, momentum=0.1, affine=False, track_running_stats=False)
    (2): ReLU()
  )
  (mlp): Sequential(
    (0): Linear(in_features=31, out_features=128, bias=True)
    (1): ReLU()
    (2): Linear(in_features=128, out_features=128, bias=True)
  )
  (resnet_block): Sequential(
    (0): ResnetBlock(
      (conv_layer): Sequential(
        (0): Conv2d(128, 128, kernel_size=(3, 3), stride=(1, 1), padding=(1, 1), bias=False)
        (1): InstanceNorm2d(128, eps=1e-05, momentum=0.1, affine=False, track_running_stats=False)
        (2): ReLU()
      )
    )
    (1): ResnetBlock(
      (conv_layer): Sequential(
        (0): Conv2d(128, 128, kernel_size=(3, 3), stride=(1, 1), padding=(1, 1), bias=False)
        (1): InstanceNorm2d(128, eps=1e-05, momentum=0.1, affine=False, track_running_stats=False)
        (2): ReLU()
      )
    )
    (2): ResnetBlock(
      (conv_layer): Sequential(
        (0): Conv2d(128, 128, kernel_size=(3, 3), stride=(1, 1), padding=(1, 1), bias=False)
        (1): InstanceNorm2d(128, eps=1e-05, momentum=0.1, affine=False, track_running_stats=False)
        (2): ReLU()
      )
    )
  )
  (up_conv1): Sequential(
    (0): Upsample(scale_factor=2.0, mode=nearest)
    (1): Conv2d(128, 64, kernel_size=(3, 3), stride=(1, 1), padding=(1, 1), bias=False)
    (2): InstanceNorm2d(64, eps=1e-05, momentum=0.1, affine=False, track_running_stats=False)
    (3): ReLU()
  )
  (up_conv2): Sequential(
    (0): Upsample(scale_factor=2.0, mode=nearest)
    (1): Conv2d(64, 32, kernel_size=(3, 3), stride=(1, 1), padding=(1, 1), bias=False)
    (2): InstanceNorm2d(32, eps=1e-05, momentum=0.1, affine=False, track_running_stats=False)
    (3): ReLU()
  )
  (up_conv3): Sequential(
    (0): Upsample(scale_factor=2.0, mode=nearest)
    (1): Conv2d(32, 3, kernel_size=(3, 3), stride=(1, 1), padding=(1, 1))
    (2): Tanh()
  )
)
---------------------------------------
                 D                
---------------------------------------
Discriminator(
  (conv1): Sequential(
    (0): Conv2d(3, 32, kernel_size=(4, 4), stride=(2, 2), padding=(1, 1), bias=False)
    (1): InstanceNorm2d(32, eps=1e-05, momentum=0.1, affine=False, track_running_stats=False)
    (2): ReLU()
  )
  (conv2): Sequential(
    (0): Conv2d(32, 64, kernel_size=(4, 4), stride=(2, 2), padding=(1, 1), bias=False)
    (1): InstanceNorm2d(64, eps=1e-05, momentum=0.1, affine=False, track_running_stats=False)
    (2): ReLU()
  )
  (conv3): Sequential(
    (0): Conv2d(64, 128, kernel_size=(4, 4), stride=(2, 2), padding=(1, 1), bias=False)
    (1): InstanceNorm2d(128, eps=1e-05, momentum=0.1, affine=False, track_running_stats=False)
    (2): ReLU()
  )
  (conv4): Sequential(
    (0): Conv2d(128, 256, kernel_size=(4, 4), stride=(2, 2), padding=(1, 1), bias=False)
    (1): InstanceNorm2d(256, eps=1e-05, momentum=0.1, affine=False, track_running_stats=False)
    (2): ReLU()
  )
  (conv5): Sequential(
    (0): Conv2d(256, 1, kernel_size=(4, 4), stride=(1, 1))
  )
)
---------------------------------------
                  style_identifier                  
---------------------------------------
StyleIdentifier(
  (conv1): Sequential(
    (0): Conv2d(3, 32, kernel_size=(4, 4), stride=(2, 2), padding=(1, 1), bias=False)
    (1): InstanceNorm2d(32, eps=1e-05, momentum=0.1, affine=False, track_running_stats=False)
    (2): ReLU()
  )
  (conv2): Sequential(
    (0): Conv2d(32, 64, kernel_size=(4, 4), stride=(2, 2), padding=(1, 1), bias=False)
    (1): InstanceNorm2d(64, eps=1e-05, momentum=0.1, affine=False, track_running_stats=False)
    (2): ReLU()
  )
  (resnet_block): Sequential(
    (0): ResnetBlock(
      (conv_layer): Sequential(
        (0): Conv2d(64, 64, kernel_size=(3, 3), stride=(1, 1), padding=(1, 1), bias=False)
        (1): InstanceNorm2d(64, eps=1e-05, momentum=0.1, affine=False, track_running_stats=False)
        (2): ReLU()
      )
    )
    (1): AvgPool2d(kernel_size=4, stride=2, padding=1)
    (2): ResnetBlock(
      (conv_layer): Sequential(
        (0): Conv2d(64, 64, kernel_size=(3, 3), stride=(1, 1), padding=(1, 1), bias=False)
        (1): InstanceNorm2d(64, eps=1e-05, momentum=0.1, affine=False, track_running_stats=False)
        (2): ReLU()
      )
    )
    (3): AvgPool2d(kernel_size=4, stride=2, padding=1)
    (4): ResnetBlock(
      (conv_layer): Sequential(
        (0): Conv2d(64, 64, kernel_size=(3, 3), stride=(1, 1), padding=(1, 1), bias=False)
        (1): InstanceNorm2d(64, eps=1e-05, momentum=0.1, affine=False, track_running_stats=False)
        (2): ReLU()
      )
    )
    (5): AvgPool2d(kernel_size=4, stride=2, padding=1)
  )
  (conv3): Sequential(
    (0): Conv2d(64, 64, kernel_size=(4, 4), stride=(1, 1))
    (1): LeakyReLU(negative_slope=0.01)
  )
  (lin1): Linear(in_features=64, out_features=31, bias=True)
  (ReLU): ReLU()
)
---------------------------------------
